{
  "nodes": [
    {
      "op": "null", 
      "name": "data", 
      "inputs": []
    }, 
    {
      "op": "null", 
      "name": "conv2d0_weight", 
      "inputs": []
    }, 
    {
      "op": "null", 
      "name": "batch_norm0_gamma_mul_div_expand", 
      "inputs": []
    }, 
    {
      "op": "null", 
      "name": "batch_norm0_add_beta_expand", 
      "inputs": []
    }, 
    {
      "op": "tvm_op", 
      "name": "leaky_relu0", 
      "attrs": {
        "flatten_data": "0", 
        "func_name": "fuse_conv2d_broadcast_mul_broadcast_add_leaky_relu", 
        "num_inputs": "4", 
        "num_outputs": "1"
      }, 
      "inputs": [[0, 0, 0], [1, 0, 0], [2, 0, 0], [3, 0, 0]]
    }, 
    {
      "op": "tvm_op", 
      "name": "max_pool2d0", 
      "attrs": {
        "flatten_data": "0", 
        "func_name": "fuse_max_pool2d", 
        "num_inputs": "1", 
        "num_outputs": "1"
      }, 
      "inputs": [[4, 0, 0]]
    }, 
    {
      "op": "null", 
      "name": "conv2d1_weight", 
      "inputs": []
    }, 
    {
      "op": "null", 
      "name": "batch_norm1_gamma_mul_div_expand", 
      "inputs": []
    }, 
    {
      "op": "null", 
      "name": "batch_norm1_add_beta_expand", 
      "inputs": []
    }, 
    {
      "op": "tvm_op", 
      "name": "leaky_relu1", 
      "attrs": {
        "flatten_data": "0", 
        "func_name": "fuse_conv2d_broadcast_mul_broadcast_add_leaky_relu_1", 
        "num_inputs": "4", 
        "num_outputs": "1"
      }, 
      "inputs": [[5, 0, 0], [6, 0, 0], [7, 0, 0], [8, 0, 0]]
    }, 
    {
      "op": "tvm_op", 
      "name": "max_pool2d1", 
      "attrs": {
        "flatten_data": "0", 
        "func_name": "fuse_max_pool2d_1", 
        "num_inputs": "1", 
        "num_outputs": "1"
      }, 
      "inputs": [[9, 0, 0]]
    }, 
    {
      "op": "null", 
      "name": "conv2d2_weight", 
      "inputs": []
    }, 
    {
      "op": "null", 
      "name": "batch_norm2_gamma_mul_div_expand", 
      "inputs": []
    }, 
    {
      "op": "null", 
      "name": "batch_norm2_add_beta_expand", 
      "inputs": []
    }, 
    {
      "op": "tvm_op", 
      "name": "leaky_relu2", 
      "attrs": {
        "flatten_data": "0", 
        "func_name": "fuse_conv2d_broadcast_mul_broadcast_add_leaky_relu_2", 
        "num_inputs": "4", 
        "num_outputs": "1"
      }, 
      "inputs": [[10, 0, 0], [11, 0, 0], [12, 0, 0], [13, 0, 0]]
    }, 
    {
      "op": "tvm_op", 
      "name": "max_pool2d2", 
      "attrs": {
        "flatten_data": "0", 
        "func_name": "fuse_max_pool2d_2", 
        "num_inputs": "1", 
        "num_outputs": "1"
      }, 
      "inputs": [[14, 0, 0]]
    }, 
    {
      "op": "null", 
      "name": "conv2d3_weight", 
      "inputs": []
    }, 
    {
      "op": "null", 
      "name": "batch_norm3_gamma_mul_div_expand", 
      "inputs": []
    }, 
    {
      "op": "null", 
      "name": "batch_norm3_add_beta_expand", 
      "inputs": []
    }, 
    {
      "op": "tvm_op", 
      "name": "leaky_relu3", 
      "attrs": {
        "flatten_data": "0", 
        "func_name": "fuse_conv2d_broadcast_mul_broadcast_add_leaky_relu_3", 
        "num_inputs": "4", 
        "num_outputs": "1"
      }, 
      "inputs": [[15, 0, 0], [16, 0, 0], [17, 0, 0], [18, 0, 0]]
    }, 
    {
      "op": "tvm_op", 
      "name": "max_pool2d3", 
      "attrs": {
        "flatten_data": "0", 
        "func_name": "fuse_max_pool2d_3", 
        "num_inputs": "1", 
        "num_outputs": "1"
      }, 
      "inputs": [[19, 0, 0]]
    }, 
    {
      "op": "null", 
      "name": "conv2d4_weight", 
      "inputs": []
    }, 
    {
      "op": "null", 
      "name": "batch_norm4_gamma_mul_div_expand", 
      "inputs": []
    }, 
    {
      "op": "null", 
      "name": "batch_norm4_add_beta_expand", 
      "inputs": []
    }, 
    {
      "op": "tvm_op", 
      "name": "leaky_relu4", 
      "attrs": {
        "flatten_data": "0", 
        "func_name": "fuse_conv2d_broadcast_mul_broadcast_add_leaky_relu_4", 
        "num_inputs": "4", 
        "num_outputs": "1"
      }, 
      "inputs": [[20, 0, 0], [21, 0, 0], [22, 0, 0], [23, 0, 0]]
    }, 
    {
      "op": "tvm_op", 
      "name": "max_pool2d4", 
      "attrs": {
        "flatten_data": "0", 
        "func_name": "fuse_max_pool2d_4", 
        "num_inputs": "1", 
        "num_outputs": "1"
      }, 
      "inputs": [[24, 0, 0]]
    }, 
    {
      "op": "null", 
      "name": "conv2d5_weight", 
      "inputs": []
    }, 
    {
      "op": "null", 
      "name": "batch_norm5_gamma_mul_div_expand", 
      "inputs": []
    }, 
    {
      "op": "null", 
      "name": "batch_norm5_add_beta_expand", 
      "inputs": []
    }, 
    {
      "op": "tvm_op", 
      "name": "leaky_relu5", 
      "attrs": {
        "flatten_data": "0", 
        "func_name": "fuse_conv2d_broadcast_mul_broadcast_add_leaky_relu_5", 
        "num_inputs": "4", 
        "num_outputs": "1"
      }, 
      "inputs": [[25, 0, 0], [26, 0, 0], [27, 0, 0], [28, 0, 0]]
    }, 
    {
      "op": "tvm_op", 
      "name": "pad0", 
      "attrs": {
        "flatten_data": "0", 
        "func_name": "fuse_pad", 
        "num_inputs": "1", 
        "num_outputs": "1"
      }, 
      "inputs": [[29, 0, 0]]
    }, 
    {
      "op": "tvm_op", 
      "name": "max_pool2d5", 
      "attrs": {
        "flatten_data": "0", 
        "func_name": "fuse_max_pool2d_5", 
        "num_inputs": "1", 
        "num_outputs": "1"
      }, 
      "inputs": [[30, 0, 0]]
    }, 
    {
      "op": "null", 
      "name": "conv2d6_weight", 
      "inputs": []
    }, 
    {
      "op": "null", 
      "name": "batch_norm6_gamma_mul_div_expand", 
      "inputs": []
    }, 
    {
      "op": "null", 
      "name": "batch_norm6_add_beta_expand", 
      "inputs": []
    }, 
    {
      "op": "tvm_op", 
      "name": "leaky_relu6", 
      "attrs": {
        "flatten_data": "0", 
        "func_name": "fuse_conv2d_broadcast_mul_broadcast_add_leaky_relu_6", 
        "num_inputs": "4", 
        "num_outputs": "1"
      }, 
      "inputs": [[31, 0, 0], [32, 0, 0], [33, 0, 0], [34, 0, 0]]
    }, 
    {
      "op": "null", 
      "name": "conv2d7_weight", 
      "inputs": []
    }, 
    {
      "op": "null", 
      "name": "batch_norm7_gamma_mul_div_expand", 
      "inputs": []
    }, 
    {
      "op": "null", 
      "name": "batch_norm7_add_beta_expand", 
      "inputs": []
    }, 
    {
      "op": "tvm_op", 
      "name": "leaky_relu7", 
      "attrs": {
        "flatten_data": "0", 
        "func_name": "fuse_conv2d_broadcast_mul_broadcast_add_leaky_relu_7", 
        "num_inputs": "4", 
        "num_outputs": "1"
      }, 
      "inputs": [[35, 0, 0], [36, 0, 0], [37, 0, 0], [38, 0, 0]]
    }, 
    {
      "op": "null", 
      "name": "conv2d8_weight", 
      "inputs": []
    }, 
    {
      "op": "null", 
      "name": "conv2d8_bias", 
      "inputs": []
    }, 
    {
      "op": "tvm_op", 
      "name": "conv2d8", 
      "attrs": {
        "flatten_data": "0", 
        "func_name": "fuse_conv2d", 
        "num_inputs": "3", 
        "num_outputs": "1"
      }, 
      "inputs": [[39, 0, 0], [40, 0, 0], [41, 0, 0]]
    }, 
    {
      "op": "tvm_op", 
      "name": "yolo2_region0", 
      "attrs": {
        "flatten_data": "0", 
        "func_name": "fuse_yolo2_region", 
        "num_inputs": "1", 
        "num_outputs": "1"
      }, 
      "inputs": [[42, 0, 0]]
    }
  ], 
  "arg_nodes": [
    0, 
    1, 
    2, 
    3, 
    6, 
    7, 
    8, 
    11, 
    12, 
    13, 
    16, 
    17, 
    18, 
    21, 
    22, 
    23, 
    26, 
    27, 
    28, 
    32, 
    33, 
    34, 
    36, 
    37, 
    38, 
    40, 
    41
  ], 
  "node_row_ptr": [
    0, 
    1, 
    2, 
    3, 
    4, 
    5, 
    6, 
    7, 
    8, 
    9, 
    10, 
    11, 
    12, 
    13, 
    14, 
    15, 
    16, 
    17, 
    18, 
    19, 
    20, 
    21, 
    22, 
    23, 
    24, 
    25, 
    26, 
    27, 
    28, 
    29, 
    30, 
    31, 
    32, 
    33, 
    34, 
    35, 
    36, 
    37, 
    38, 
    39, 
    40, 
    41, 
    42, 
    43, 
    44
  ], 
  "heads": [[43, 0, 0]], 
  "attrs": {
    "storage_id": ["list_int", [
        4, 
        5, 
        6, 
        7, 
        0, 
        1, 
        8, 
        9, 
        10, 
        0, 
        1, 
        11, 
        12, 
        13, 
        0, 
        1, 
        14, 
        15, 
        16, 
        0, 
        1, 
        17, 
        18, 
        19, 
        0, 
        1, 
        20, 
        21, 
        22, 
        2, 
        1, 
        2, 
        23, 
        24, 
        25, 
        1, 
        26, 
        27, 
        28, 
        0, 
        29, 
        30, 
        2, 
        3]], 
    "dtype": ["list_int", [
        0, 
        0, 
        0, 
        0, 
        0, 
        0, 
        0, 
        0, 
        0, 
        0, 
        0, 
        0, 
        0, 
        0, 
        0, 
        0, 
        0, 
        0, 
        0, 
        0, 
        0, 
        0, 
        0, 
        0, 
        0, 
        0, 
        0, 
        0, 
        0, 
        0, 
        0, 
        0, 
        0, 
        0, 
        0, 
        0, 
        0, 
        0, 
        0, 
        0, 
        0, 
        0, 
        0, 
        0]], 
    "dltype": ["list_str", [
        "float32", 
        "float32", 
        "float32", 
        "float32", 
        "float32", 
        "float32", 
        "float32", 
        "float32", 
        "float32", 
        "float32", 
        "float32", 
        "float32", 
        "float32", 
        "float32", 
        "float32", 
        "float32", 
        "float32", 
        "float32", 
        "float32", 
        "float32", 
        "float32", 
        "float32", 
        "float32", 
        "float32", 
        "float32", 
        "float32", 
        "float32", 
        "float32", 
        "float32", 
        "float32", 
        "float32", 
        "float32", 
        "float32", 
        "float32", 
        "float32", 
        "float32", 
        "float32", 
        "float32", 
        "float32", 
        "float32", 
        "float32", 
        "float32", 
        "float32", 
        "float32"]], 
    "shape": ["list_shape", [
        [1, 3, 416, 416], 
        [16, 3, 3, 3], 
        [16, 1, 1], 
        [16, 1, 1], 
        [1, 16, 416, 416], 
        [1, 16, 208, 208], 
        [32, 16, 3, 3], 
        [32, 1, 1], 
        [32, 1, 1], 
        [1, 32, 208, 208], 
        [1, 32, 104, 104], 
        [64, 32, 3, 3], 
        [64, 1, 1], 
        [64, 1, 1], 
        [1, 64, 104, 104], 
        [1, 64, 52, 52], 
        [128, 64, 3, 3], 
        [128, 1, 1], 
        [128, 1, 1], 
        [1, 128, 52, 52], 
        [1, 128, 26, 26], 
        [256, 128, 3, 3], 
        [256, 1, 1], 
        [256, 1, 1], 
        [1, 256, 26, 26], 
        [1, 256, 13, 13], 
        [512, 256, 3, 3], 
        [512, 1, 1], 
        [512, 1, 1], 
        [1, 512, 13, 13], 
        [1, 512, 14, 14], 
        [1, 512, 13, 13], 
        [1024, 512, 3, 3], 
        [1024, 1, 1], 
        [1024, 1, 1], 
        [1, 1024, 13, 13], 
        [1024, 1024, 3, 3], 
        [1024, 1, 1], 
        [1024, 1, 1], 
        [1, 1024, 13, 13], 
        [125, 1024, 1, 1], 
        [125], 
        [1, 125, 13, 13], 
        [1, 125, 13, 13]]]
  }
}